layer3_bias.npy (npy, 480 bytes, 1 tensors)

array f8 [1, 50]
0	0x3fac2b39cc432712	0.05501728647648298
1	0xbfae7b0b83fbb84a	-0.05953250871776612
2	0xbf9f45a32bb360ee	-0.03053908304431812
3	0xbf977414ad862743	-0.02290375050646466
4	0xbfa016f24a650d5e	-0.031425067502392365
5	0xbf9664649aed49db	-0.021867343860614823
6	0xbfa856e1acad3ac5	-0.04753785355443577
7	0xbfb696de0f2a11fd	-0.08823955412123748
8	0x3fa7938754e44386	0.046047429192305464
9	0x3faa40a203c52df1	0.05127435966513961
10	0xbfa120d703620864	-0.033453673518139465
11	0xbf62fcb11dff1b29	-0.0023177584953119235
12	0xbfa9ccb542d0fef1	-0.05038992348317873
13	0xbfb5dcfb29a80fec	-0.08540315405849669
14	0x3f99377856871fd2	0.024625664025535184
15	0xbfb9b00595d250a6	-0.10034212978127019
16	0x3f805caed262ce94	0.00798927859828006
17	0xbfab00270c58de24	-0.05273553872796935
18	0x3fa2523bb533245c	0.03578363978301333
19	0x3f8ea8321bcaf8c7	0.014969245408220989
20	0x3f9aa4742209ea61	0.02601796586757599
21	0xbfb31e8a24699369	-0.07468474759077783
22	0x3fad3c686af369b1	0.057101500564118786
23	0xbf9cbf03a4f7be2c	-0.02807241148360455
24	0xbf9d520294bc3a48	-0.028633156135635468
25	0xbfb256b19092a899	-0.07163533954249814
26	0x3f818e8bc0b3251e	0.008572665994864222
27	0x3f65e0e7a7973688	0.0026707195763496262
28	0xbfb86a85a5c8519b	-0.09537539765762519
29	0xbfbd36559994129d	-0.11411032676194073
30	0x3f8ce152c064fd8a	0.014101644989408486
31	0x3f99eec9af8427da	0.025324965799008094
32	0xbfbc63d2289355f5	-0.11089814653981718
33	0xbfb86794848727ca	-0.09533050761743236
34	0xbf93313fd165ed79	-0.018742558627747628
35	0xbfb451d5d3046994	-0.07937370683467854
36	0xbf9bf08eb886cd2d	-0.02728484154949944
37	0xbf967daa79fb119a	-0.021963752455819475
38	0x3fabb1a814747791	0.054089787003461905
39	0x3fc04041048a6834	0.1269608757182269
40	0xbfc13084aa352d5a	-0.13429315863536823
41	0xbfb9e79a5fd3bbd6	-0.10119023170021477
42	0xbf7ab05cda9e25b8	-0.006515848837702114
43	0x3f807219a5010764	0.008030128810904542
44	0xbfa0101e1fca43ad	-0.03137296808302579
45	0xbfa845e19452063a	-0.047408151011961455
46	0xbfb288ecf551b7ee	-0.07240181912649721
47	0xbfbd7cdd4b0c541b	-0.11518652994375637
48	0xbf95147b9704a8a1	-0.02058594807855541
49	0xbfafd1132c8b247f	-0.06214198988670549
