layer1_weights.npy (npy, 10080 bytes, 1 tensors)

array f8 [50, 1, 5, 5]
0.2978692319456705 0.16999618654767598 0.11832781325541464 0.13837496059474805 0.3038688814574139 0.083774751123016 0.06309915031101973 0.1488555338633583
0.27282919863753297 0.33982582279167406 -0.0869884044903073 -0.056696878321151764 -0.005248380309394962 -0.02204118102350931 0.12819484163310702 0.035791051231138245
0.08755092347854952 -0.05077919310360529 0.0029233066905743955 0.04036609004085784 -0.05785225926086112 -0.04296581904837695 -0.0037687617794152483 -0.13069920741507096
-0.004214533762528999 0.3197448810784388 0.21942967060582377 0.16466206173603734 0.0878702854782024 -0.028884826608544297 0.4017983531677762 0.3036811856061107
0.33894784886715473 0.266016852323462 0.2623087316182935 0.1871536849534417 0.12475620539006499 0.15529535361662802 0.21967405824488898 0.08217168834251405
0.002034057613201778 -0.20772186850079796 -0.1229623050763617 -0.1485474296844028 -0.15961883714788497 -0.10702324103373087 -0.1899338755412303 -0.3487139133884366
-0.41618038730093554 -0.34934571526637787 0.14743830843395075 0.10890816149430478 -0.027227661143047775 -0.14900307955363354 -0.07002946901690338 -0.05497706102976198
0.03903206910625643 -0.01474984593509494 -0.10691769566784351 0.1497642399437749 -0.031601760630456006 -0.04893628352954716 -0.016948271234720598 -0.09757315594552021
0.026450128010568633 -0.1309699550700618 0.03208667828144122 -0.07845177602780005 -0.049536795670992416 -0.011678140847236245 -0.08137576807111534 -0.06267262974452581
-0.05360742355961019 0.02938419477996404 0.0007578455508265577 -0.08034895640458387 -0.18185989797229699 -0.0021079225316162995 -0.11387887936293628 0.03614558006879686
0.06586266187716289 0.09313593557054768 0.062276366025023185 -0.0567976025074457 0.13366316316640933 -0.007556710592041401 -0.07158039776730347 0.0020440322818892835
-0.10765823557351707 0.012470910943136728 0.11980428084121879 -0.05205114587543159 -0.15640774194103824 -0.1880714695954837 -0.0723170533656196 0.32682680461901636
0.13809421715733738 0.11083260561754962 -0.06831302929184392 -0.07466198722947472 -0.08513828977205243 -0.021895323429178996 -0.0704326805906414 0.11865329140782244
0.10191317410027566 -0.18708013744335858 0.002676688377901109 -0.04276034265072901 -0.07391343781153471 -0.011462829737790715 -0.14801574159436665 -0.02038589583325811
-0.09702486913406447 -0.17555282615259116 -0.06714991791206179 -0.10953988590340662 0.06194697084940054 -0.12444413952909425 -0.1401530179171938 -0.029855129029522375
0.08788369409645794 0.12842540769172306 -0.09782353077129986 -0.12522898204948474 0.009593632825847775 -0.22443899053128985 -0.22446274219987195 -0.128796567794531
-0.0553674890802716 -0.1825502158090473 -0.04126477839477667 -0.17213708983473897 -0.09898774768857714 -0.2565741262826587 -0.20930471045963273 0.10025937287013162
0.03753825055416369 0.04197517787074649 -0.08298053388495719 -0.026922414065824872 0.15324114434966898 0.18634517627623934 0.07033072221566136 -0.06087763856539526
0.002858430705515848 0.37621653746518696 0.3075435835937814 0.1596658926559045 0.17843381725297733 0.10871194022383747 -0.10934987858115877 -0.15086890116261814
-0.08959122154743714 -0.18837912434818696 0.017258420481039097 -0.04206724874391412 -0.03930546145512621 -0.04140787688460394 -0.06389221845952213 0.035356548039909445
0.17484785221538066 0.013205881560980763 0.1098025173591968 0.12874543138517006 0.11683711365651099 0.2707534202810732 0.23313546797109577 0.12081786908967057
0.2486749882814876 0.21251185102690875 -0.16535206716904033 -0.09187101511407991 -0.21039242100731514 -0.1957032745466718 0.08680944615919008 -0.015763091453069523
-0.08098517136645828 -0.2682779081877777 -0.18360379768173715 -0.11005662378274463 -0.024302842233336033 0.16184865580677518 -0.07148355385187054 -0.14926438101659537
0.006158367236203469 -0.18574582349509697 -0.00589799703591232 -0.10872951271266187 -0.23408521555467365 -0.078997425622113 -0.09809448594302933 -0.1595885645717015
-0.32335624137682795 -0.32260645170916225 -0.048318988542406495 -0.02392637144015514 -0.001970924284665914 -0.09028114515507844 -0.003905837763886241 -0.0461726654807486
-0.033577184076227735 0.16162773983538486 -0.033090620157498286 0.11896970401276039 0.2273218323867569 0.19295977286650356 0.27400241588795543 0.12826511050486242
0.12880977431858734 0.36316063188287595 -0.014907824582595229 0.16300090626928398 0.1373574579123187 0.2586849473400239 0.28521675584976286 -0.4449876337486205
-0.2972197260789131 -0.2879362367679466 -0.24632663677760855 -0.0885653073078139 -0.13534224419876806 -0.11724259251782554 -0.26119939891040567 -0.20047153860917774
-0.04842050956676973 -0.23030635897947693 -0.2353639611133559 -0.19249285649047793 0.05399925235194141 0.06778642317201648 -0.07539785560996838 0.0405016327453906
0.053664358462550334 0.10448281806413758 0.02773689381589316 0.10175801693459839 0.01047260676693566 0.11980153580717814 0.16200208497219487 0.14144874120112416
0.0839733172562989 -0.011024438562829659 0.19978788172708056 0.22058077710715526 0.06467451371439333 -0.0994260873691976 0.030474037821835175 0.059952040010503395
-0.0655331111075503 -0.17178655967629694 0.1754322474010327 0.12095279885497474 -0.024280154187913613 -0.031393968877196685 -0.07562853538848599 0.31344595867595826
00000000: 263e 6c1c 4a10 d33f b75f d55e 6fc2 c53f
00000010: b0a2 2348 bb4a be3f 537c 2b4d 45b6 c13f
00000020: ab6d 0877 9672 d33f eecb 4d18 4372 b53f
00000030: 76c0 fd12 4427 b03f 86c8 e2b8 b20d c33f
00000040: a2b1 6299 0876 d13f 7e7f cece b4bf d53f
00000050: 5fc6 6a40 df44 b6bf 2e6a 598c 5f07 adbf
00000060: cdb9 925c 537f 75bf 8b0e a59e f691 96bf
00000070: 8440 2a46 b068 c03f 11ed 0d65 3453 a23f
00000080: 2731 13c1 bc69 b63f 68fe 64fb baff a9bf
00000090: 0df1 3a54 9ef2 673f 688d 2f39 ddaa a43f
000000a0: 6fdb 0cb3 cf9e adbf 5338 51a7 9dff a5bf
000000b0: 5c1d d992 aadf 6ebf 26fd ba6a c0ba c0bf
000000c0: f9e1 d84a 4243 71bf 42e6 d23b b376 d43f
000000d0: 9514 837d 4516 cc3f db2b 067d a513 c53f
000000e0: b747 6bc2 aa7e b63f 5f8d 89e6 fb93 9dbf
000000f0: ef4d 9c70 10b7 d93f 1aae 2536 836f d33f
00000100: 55c6 7b51 52b1 d53f 1f81 3a8c 6b06 d13f
00000110: 385f f08f aac9 d03f bab7 19e6 a6f4 c73f
00000120: 5c96 1fce 05f0 bf3f bb88 80d8 b7e0 c33f
00000130: b57f f88f 471e cc3f 6d94 162a 3409 b53f
00000140: 4c03 a95d baa9 603f 07fe ef53 a196 cabf
00000150: 7d99 f126 757a bfbf 8b1e 3328 9a03 c3bf
00000160: 7517 b0da 636e c4bf 52dc 2608 e065 bbbf
00000170: 3812 edd3 c04f c8bf fa76 6a29 5451 d6bf
00000180: a86c 2c10 b3a2 dabf cb46 8421 ae5b d6bf
00000190: 6760 732c 42df c23f cdb1 e2bf 67e1 bb3f
000001a0: 06b4 9f68 91e1 9bbf 83d3 d76c 8812 c3bf
000001b0: 7c10 2f87 73ed b1bf 2259 4e0e f425 acbf
000001c0: 7df8 9ce8 02fc a33f e654 4ccf 2a35 8ebf
000001d0: 42cf 4146 f55e bbbf 929b 5580 792b c33f
000001e0: a9c2 ce20 1b2e a0bf b1c2 b132 2d0e a9bf
000001f0: 721b b53a e35a 91bf 82e6 c0e9 8dfa b8bf
00000200: b422 1f0b be15 9b3f a76a e49c 9fc3 c0bf
00000210: f54d b643 aa6d a03f 9f3e 5a64 6a15 b4bf
00000220: 3b0a b60a e35c a9bf a9bc 2288 b5ea 87bf
00000230: ef64 8dd6 0ad5 b4bf f867 1b3f 500b b0bf
00000240: 1acf 05a6 6e72 abbf 089f 65ee e316 9e3f
00000250: fd96 98ed 44d5 483f c281 06cc bf91 b4bf
00000260: 4959 1f65 2f47 c7bf 14d2 be4a a244 61bf
00000270: 18a6 918e 2a27 bdbf 7fb3 9468 ac81 a23f
00000280: 3c38 ca1a 60dc b03f 119d 5bb5 c1d7 b73f
00000290: 614b c816 b0e2 af3f c078 854a 9314 adbf
000002a0: d764 3de1 df1b c13f 5500 bb0d c9f3 7ebf
000002b0: 3dfb 71cb 1753 b2bf af93 af79 a5be 603f
000002c0: 09ee ee78 7d8f bbbf 9b80 3755 598a 893f
000002d0: f342 224c 7eab be3f 2134 82a2 72a6 aabf
000002e0: 042e 3d3c 2b05 c4bf d093 9cd5 b912 c8bf
000002f0: 0bff 25d3 5e83 b2bf f0de 52f9 baea d43f
00000300: e88e 3a41 12ad c13f 1a35 7590 865f bc3f
00000310: 21fc b272 f67c b1bf b1ab 6749 0c1d b3bf
00000320: 8a55 357a 9fcb b5bf c131 4148 ba6b 96bf
00000330: dcd7 b44b e007 b2bf 80cb 28e6 0f60 be3f
00000340: 1fd0 ca55 fb16 ba3f d773 06f0 3df2 c7bf
00000350: beec 6d21 6ced 653f 3d53 8002 afe4 a5bf
00000360: 41ae 22b6 fdeb b2bf da56 bff6 d279 87bf
00000370: 6a72 b808 2ef2 c2bf be30 9d4f 0ae0 94bf
00000380: 3e59 d42f 9fd6 b8bf 38db 85d7 8378 c6bf
00000390: 0e84 5cad bc30 b1bf 4b0d 9053 ce0a bcbf
000003a0: 68d5 c46b 83b7 af3f 6ed1 7435 92db bfbf
000003b0: 24ed 31ba 88f0 c1bf c3d9 32cb 5792 9ebf
000003c0: eaf6 feb7 8b7f b63f 2076 0167 3e70 c03f
000003d0: c525 7181 f60a b9bf f0fa 34d7 8007 c0bf
000003e0: b310 e599 d3a5 833f faba 23b6 6aba ccbf
000003f0: 789f 75f4 31bb ccbf 05dd 41eb 677c c0bf
00000400: e609 b9a5 2059 acbf 6888 6333 ce5d c7bf
00000410: 4a50 5d33 a820 a5bf a068 a291 9608 c6bf
00000420: 8bf2 06d3 4257 b9bf 1190 58e2 b56b d0bf
00000430: dc53 292b 7fca cabf 463d 9827 99aa b93f
00000440: fd57 f5ac 3638 a33f 06b4 6540 c57d a53f
00000450: 2092 3d57 363e b5bf c6b2 c49f 8c91 9bbf
00000460: ad14 b1e3 679d c33f c7d8 efa2 28da c73f
00000470: e600 d2b7 3101 b23f bb64 6495 5a2b afbf
00000480: 1d03 bd4c 906a 673f 4926 2887 ee13 d83f
00000490: d450 6848 cbae d33f 6933 9f95 ee6f c43f
000004a0: 9f0d cd58 ebd6 c63f e132 f2b3 8bd4 bb3f
000004b0: bae0 5388 5afe bbbf 1a0b 3d12 ac4f c3bf
000004c0: 1710 8e46 73ef b6bf d98b 29a1 ce1c c8bf
000004d0: c1cc 2ffe 30ac 913f 33f5 2ca3 d689 a5bf
000004e0: 7906 026f d81f a4bf 3647 08ca 6933 a5bf
000004f0: 23a6 c08c 3d5b b0bf 67cd 0fe3 401a a23f
00000500: 3f3c 8517 6a61 c63f efa5 5a6b af0b 8b3f
00000510: 5283 138d 041c bc3f 0d84 a7f4 ba7a c03f
00000520: b31e 1d7e 09e9 bd3f 62ca 5827 0654 d13f
00000530: 099c 3c0d 62d7 cd3f 1c36 837c ebed be3f
00000540: 3047 00ff 94d4 cf3f c524 169d 9633 cb3f
00000550: 3a94 68ac 412a c5bf f883 5ddd db84 b7bf
00000560: 48be c68b 23ee cabf c8f3 f20d ce0c c9bf
00000570: f9d2 3cd4 2439 b63f bd62 1929 3324 90bf
00000580: 54da 7ab6 71bb b4bf 8ff8 791a 772b d1bf
00000590: 7b73 3b49 5480 c7bf 79e5 dabf ab2c bcbf
000005a0: 073c 5e22 d8e2 98bf 83bb cbed 74b7 c43f
000005b0: 2fe2 fe05 bf4c b2bf 5544 7661 181b c3bf
000005c0: 9d20 051e 8439 793f 05d8 a3e6 84c6 c7bf
000005d0: 042f 1986 7f28 78bf 7afd 3585 b2d5 bbbf
000005e0: 5468 a41c 81f6 cdbf 09e2 83df 2c39 b4bf
000005f0: f411 0b61 b81c b9bf 5a55 d3e8 656d c4bf
00000600: faf0 6a60 deb1 d4bf f471 e487 95a5 d4bf
00000610: a580 2137 44bd a8bf b1c0 639b 2780 98bf
00000620: be99 0eeb 5325 60bf 0ff1 e245 aa1c b7bf
00000630: 5f2f b3ae 22ff 6fbf 3ffd 6a90 f1a3 a7bf
00000640: 3993 ff56 0731 a1bf 7614 5cc0 37b0 c43f
00000650: fdf9 c2f6 40f1 a0bf 5e19 f36b cc74 be3f
00000660: 064b e2bd e118 cd3f 48de f3e4 e7b2 c83f
00000670: 6fe1 d06d 4189 d13f ef08 6bbb fd6a c03f
00000680: 9d3e 0db4 d67c c03f e86c 4817 063e d73f
00000690: 4c44 4b58 fe87 8ebf 448d d2b4 36dd c43f
000006a0: 692c ccde ed94 c13f a0be 324f 4b8e d03f
000006b0: 3757 a9c7 fd40 d23f b8c8 8469 ad7a dcbf
000006c0: 680a cfe2 a505 d3bf ed1a 101c 8c6d d2bf
000006d0: cbf7 8b98 a187 cfbf 027f 724a 37ac b6bf
000006e0: 14ec 4c08 e552 c1bf e0f3 8f4c 9c03 bebf
000006f0: f285 03af 7db7 d0bf d777 0d27 0da9 c9bf
00000700: 3601 17b2 92ca a8bf 2058 f0c3 ad7a cdbf
00000710: ccc6 d101 6820 cebf 768c ab1d 9ba3 c8bf
00000720: 1757 b83d caa5 ab3f 03fa a276 735a b13f
00000730: 4189 081c 464d b3bf b9f0 2648 a1bc a43f
00000740: 4d6d 1d11 e579 ab3f d552 94ce 62bf ba3f
00000750: ddd9 536f 0f67 9c3f 9f04 d73a d00c ba3f
00000760: 96f8 8a7c a972 853f 4a6a 4d3e 50ab be3f
00000770: 2271 6bfc 7bbc c43f 0475 c20a fe1a c23f
00000780: 4339 5a7b 467f b53f 4a44 ac18 fb93 86bf
00000790: a6d4 1339 a692 c93f 7797 e6ab fd3b cc3f
000007a0: ddbb 4949 828e b03f 8bb4 9ef1 fc73 b9bf
000007b0: d392 490f 9634 9f3f 85e1 58a6 08b2 ae3f
000007c0: 8d16 0329 c7c6 b0bf b3dc d91b 1afd c5bf
000007d0: dc27 a05a 9074 c63f ad18 713b c3f6 be3f
000007e0: 7c38 b790 e5dc 98bf fe07 3dcb de12 a0bf
000007f0: 1e4f 2346 645c b3bf 26e7 64a3 7f0f d43f
