layer2_weights.npy (npy, 32080 bytes, 1 tensors)

array f8 [20, 50, 2, 2]
0.033814855909903484 -0.0552195720774526 -0.09096387967852354 0.14660844779335835 0.01120863959575669 0.09661205540460001 0.19201448647468652 0.40323301936629397
0.07785700424576684 0.09225708806634164 0.05155656334385748 -0.2237445773915333 -0.02316705647487995 -0.13293151781603169 -0.09702386039063249 -0.3001669617502261
0.19658774257983191 -0.013935809744471924 -0.09599725760388753 -0.14948161014138692 -0.08965958120666497 -0.12721023259267178 0.2027251327024177 -0.20793184081059748
0.13890657467760262 0.045714160593814016 0.24673489979804258 0.19436287205457847 0.1882724236315025 -0.12264737245245654 0.0165438121051242 -0.144507131723689
-0.0904805636069625 -0.18231073408043946 -0.06469147402574701 0.23636378390795024 0.18119863758254698 0.058068984421307215 0.04283141059382932 0.09027042052676279
0.4872040076373213 -0.1157856938017183 0.23254082021849762 0.08076599681105007 -0.14008327948930402 0.06423944584716426 -0.1491287480130328 -0.009326319388170788
-0.2505187089066502 0.1129555125829247 -0.07061958592787629 -0.08118041792315576 0.10590095554754328 0.4397658506845834 0.419332050499792 0.18141070015509947
0.24953689514655095 0.3927539100757881 0.29349563302131104 -0.017990631356080863 0.34749115758742566 0.07691557370731106 0.2987622588632111 0.25318892386714836
0.05236983842451299 0.26026975464780494 0.19127207987408681 0.09382968009579888 0.0849639572027728 0.1834634372827574 0.20898755928379173 -0.14664291820573166
0.11103561439337285 -0.0020622430316624427 -0.12763809921890237 0.0914223012870961 -0.2188777464920101 0.042253569136466364 0.08096183070937087 -0.0011823969656839304
-0.05483680085369338 -0.05124354477794279 0.0016100275765760306 -0.08962364353019621 -0.12726059309222587 0.14399770138251353 -0.03149732578832736 0.07991274870209886
0.08804578266212071 -0.1809603641812483 0.3444893628496894 0.03380163026481735 0.06430263539010109 0.11491921866550468 0.11993185369822326 -0.0523776469781641
-0.15017348179256937 -0.20111722759970474 -0.25842995127451485 -0.11027403232137775 0.17298729470285676 -0.025209513656311106 -0.1997800494696163 0.04610923499038723
-0.06942226155153577 0.06904636318947346 0.31405135390457595 0.09693076091099878 -0.3597882366094741 0.07163977321569988 0.1186938881281506 0.10307918750649707
0.23447649483399058 0.07595911447925309 0.33810819024907285 0.22522516417938304 0.10519109579065054 -0.13883610243247158 -0.20453685952243858 -0.28385434519885855
0.014391372802794651 -0.1724479367543791 -0.09915922933880265 0.18168347199543552 0.3719293707953145 0.053812860499938976 -0.19531470395295747 -0.3018069383006712
0.3221323825107687 0.5355372738881367 0.33241087260995555 0.01739660436192419 0.1767463416489487 0.1917461813999501 -0.14623126422852586 -0.1433116876636602
-0.34461785222401026 0.26167099738253535 0.06998598536036185 0.40343858671913047 -0.4800442223073676 -0.22144408291653273 -0.306581272152279 0.04779479219654592
-0.24965138455051328 -0.059799551042677694 -0.1309300606253274 0.1064473228524962 0.16298343819757316 0.07369149575199412 0.2595603909633751 -0.15866715752199273
-0.10337090796225452 -0.10596405417763974 0.19959290013926112 0.07598674502412152 0.28068212504705525 -0.015340737396064627 -0.04127512313804545 -0.14515354568292688
0.0021185591640335614 -0.12582023194250894 0.10783515455948947 -0.010115010420024132 0.12194067494238606 0.11519005531429728 -0.11071960762260331 0.04131006935295004
-0.004817320575822413 0.24294712351183975 0.2151541027877731 0.1630082765062267 0.25385312026855067 0.0925826551098739 -0.06052919483374695 -0.18393453077119154
0.05143011776775233 0.1894191811536782 0.060082673460276556 -0.17777439686426813 0.17354765657310406 0.22987605976334205 0.25009555077276024 0.2860161487114372
-0.11925936966826706 0.07263564998388505 0.0850573110863811 -0.15817718864029287 -0.09143288329882406 -0.039051437776548736 -0.025980733836148816 0.055210566591415634
0.00026396409145418634 0.1988648901255077 0.07128802459088597 -0.1955098108935339 0.3025095817270805 -0.046236353558290755 0.006927436292808685 -0.19384801377835115
0.21137144938025057 0.1214032127591085 -0.3604922814130255 -0.23420363915612583 0.4332333442916629 0.1344182576169149 0.12281445568502015 0.10020648976537058
0.07275996383264201 0.15699382978850324 0.28085779035316194 0.021602912199436226 -0.19846466115544295 -0.12555583603822065 0.004451285579478997 0.07137697872562136
0.10779480300820905 -0.07877896300385773 0.03185473517764002 0.010496615166297242 -0.13536440048832843 -0.13845827684839052 -0.16639046393056273 -0.1251205595164521
-0.054697551722790914 -0.0036414817701292544 -0.009684207246666717 -0.12875638892353025 -0.15609957666205054 0.2148811458184759 0.1541654017052631 0.07967949572933869
-0.045413274327682294 -0.07770770411842993 0.10175014072035415 0.271914316064747 0.007934071389367598 0.02599330286212811 -0.15833416880066156 0.03240041967793105
0.22198383648571604 0.13209882478855217 0.1236132207697882 0.17593055939738556 -0.2001286371549451 -0.19772410836215304 -0.20638711177670546 -0.10847823813758654
-0.005720997519890322 -0.10254399950291498 -0.1399393434483098 -0.113763614187958 -0.2911124141865676 -0.047932413824167595 0.3255638287813086 0.14856277465404982
00000000: 8b04 8148 2e50 a13f b9f2 5760 bd45 acbf
00000010: 5427 56a8 6849 b7bf 7c7e 4bcc 10c4 c23f
00000020: 02ae f823 8ef4 863f 65b2 5c52 91bb b83f
00000030: 7b2d e241 ee93 c83f c61d b6dd 91ce d93f
00000040: ab06 00c7 6fee b33f 74b2 1118 299e b73f
00000050: 7d7b e932 9f65 aa3f b4e8 468d a9a3 ccbf
00000060: 25e5 9dd7 1ab9 97bf d651 d064 e603 c1bf
00000070: 3837 4f43 8ed6 b8bf 51a4 037d ef35 d3bf
00000080: 5061 9682 c929 c93f f12a c4b8 608a 8cbf
00000090: 1615 eab9 4693 b8bf 1f91 74a1 3622 c3bf
000000a0: 3141 0e29 eef3 b6bf b6dd 59c6 6c48 c0bf
000000b0: d65e 84ab e5f2 c93f 610f 0ab4 829d cabf
000000c0: 9947 b8cd b0c7 c13f fad5 6db1 d867 a73f
000000d0: 0a0c b55a 0295 cf3f 58f9 83f1 e1e0 c83f
000000e0: f733 1e8f 4f19 c83f 5ba6 9f75 d165 bfbf
000000f0: 364d c56f dcf0 903f 8860 65ae 357f c2bf
00000100: cc94 9df5 bb29 b7bf 26e9 4a48 f555 c7bf
00000110: 2647 45d5 9e8f b0bf 69f6 eb20 2b41 ce3f
00000120: 0197 3f57 8431 c73f cabd 00ca 37bb ad3f
00000130: 4eed 7ba7 ffed a53f ae67 f557 f61b b73f
00000140: 5213 d2b7 592e df3f ce19 3998 21a4 bdbf
00000150: 3b67 e9c8 e5c3 cd3f 3cab ee92 14ad b43f
00000160: 15be 0fb8 3fee c1bf 02d8 060f ff71 b03f
00000170: d900 ce9b a616 c3bf 192c 1d66 ad19 83bf
00000180: be92 729f 7f08 d0bf f152 7208 a7ea bc3f
00000190: 266d 040c 2014 b2bf 9739 0e68 3dc8 b4bf
000001a0: f61c b134 531c bb3f 3ca0 a5aa 1f25 dc3f
000001b0: 25eb c318 56d6 da3f 36c2 2740 7738 c73f
000001c0: 6b60 e631 d3f0 cf3f 62b4 c94b e122 d93f
000001d0: 311a 56e8 a1c8 d23f 6f2b 3cd5 226c 92bf
000001e0: e22d 5f8d 4b3d d63f 2040 a031 bdb0 b33f
000001f0: 552e c6bc eb1e d33f 6901 ee50 3f34 d03f
00000200: 3901 a92e 38d0 aa3f c36a 1679 42a8 d03f
00000210: a93a d97f 9a7b c83f 4bd5 67cf 3805 b83f
00000220: a64f 86a9 32c0 b53f 8512 92db ba7b c73f
00000230: 0f87 32b6 1ac0 ca3f 7a1a f1f4 31c5 c2bf
00000240: 01c4 827c d46c bc3f c29c 134c d6e4 60bf
00000250: 7934 effa 7156 c0bf f333 27b2 7367 b73f
00000260: b5af 809d 2f04 ccbf ed29 2983 42a2 a53f
00000270: 3dfc 1e1f eab9 b43f 9ea8 1a13 555f 53bf
00000280: 7358 91b4 9113 acbf cf9d e709 983c aabf
00000290: 2310 5ff2 f160 5a3f 1d1a e939 93f1 b6bf
000002a0: 4649 b33a 134a c0bf 7f8b 1145 846e c23f
000002b0: c73a 58e0 6a20 a0bf c87f 3572 2975 b43f
000002c0: e8a3 151d 2b8a b63f 59ee 038f b529 c7bf
000002d0: 4398 d01c 1d0c d63f 56e7 1381 724e a13f
000002e0: 820e 0c34 2376 b03f b7a7 d98d 586b bd3f
000002f0: 32ed 619d dab3 be3f 6713 a031 3ed1 aabf
00000300: cb44 8378 e238 c3bf 4cf9 9995 35be c9bf
00000310: 82fa 41c7 1d8a d0bf ee19 6b42 eb3a bcbf
00000320: ffa6 af9a 7224 c63f 88c4 ced2 85d0 99bf
00000330: fac0 6e85 6492 c9bf d292 a730 a19b a73f
00000340: 9a6b fa46 a8c5 b1bf 8a78 cebf 05ad b13f
00000350: 2038 92d9 6a19 d43f 8cd1 1650 74d0 b83f
00000360: ee48 6e3d c506 d7bf cde5 0df3 fb56 b23f
00000370: 66d8 beff b862 be3f 9b18 3dcb 6563 ba3f
00000380: e010 7f66 5303 ce3f d181 8578 0e72 b33f
00000390: f549 e888 90a3 d53f c27e 319d 2dd4 cc3f
000003a0: bf51 40bc cded ba3f 18cd b9a3 61c5 c1bf
000003b0: 8fda 3c89 432e cabf ce38 5d6a ab2a d2bf
000003c0: f1a7 425c 3979 8d3f c5b5 4f24 c612 c6bf
000003d0: 1352 1bcf 7f62 b9bf 2bd9 386d 6741 c73f
000003e0: 0637 ffd8 b0cd d73f 3524 e7f7 5b8d ab3f
000003f0: b0f3 f37c 1200 c9bf f443 6d0c ce50 d3bf
00000400: b071 f723 d19d d43f ef6e a410 1f23 e13f
00000410: 0574 ac40 3846 d53f 6f04 2f5b 6ad0 913f
00000420: bef1 88c6 9f9f c63f 1672 1f8d 238b c83f
00000430: 0dd3 c1c0 b4b7 c2bf c832 d391 0958 c2bf
00000440: 65df 3a09 380e d6bf d175 04b6 37bf d03f
00000450: 2a14 4dfe 99ea b13f cecc f913 f0d1 d93f
00000460: d168 dc66 0bb9 debf d075 029b 4758 ccbf
00000470: 8172 5d0e 079f d3bf d07a ce1a 8f78 a83f
00000480: 60d5 059a 93f4 cfbf c76a 16f8 0b9e aebf
00000490: 677b 39f4 50c2 c0bf 0cf2 65ba 2140 bb3f
000004a0: 4692 6c2c a4dc c43f f385 3f24 72dd b23f
000004b0: 3194 a12f a39c d03f 72cc 4096 344f c4bf
000004c0: f542 0e0d 8476 babf d699 3ed3 7520 bbbf
000004d0: 6853 4e99 428c c93f 29df ce08 de73 b33f
000004e0: 5487 e928 b2f6 d13f a50c 4deb f66a 8fbf
000004f0: 9a55 0850 0322 a5bf 7ea5 cd31 6494 c2bf
00000500: cb8f 5fca f05a 613f 8521 af9a e01a c0bf
00000510: 4a2e 31ae 159b bb3f af22 9fb7 2db7 84bf
00000520: ca01 ee0a 8137 bf3f 013b 6670 187d bd3f
00000530: 3dd9 c3c5 1e58 bcbf 659a bbe9 9726 a53f
00000540: 0b76 3da5 53bb 73bf fbff 112f e418 cf3f
00000550: 436f 896d 2b8a cb3f 2b29 4988 74dd c43f
00000560: 6a9f 6228 213f d03f 74ae df33 7fb3 b73f
00000570: 5d3f 87c0 aefd aebf 4a39 22ad 2a8b c7bf
00000580: c410 af63 0c55 aa3f 8d23 2542 e33e c83f
00000590: 96e2 22fb 27c3 ae3f 6590 4cba 4fc1 c6bf
000005a0: b2b3 a342 cf36 c63f 0990 6827 946c cd3f
000005b0: 586c dcc4 9001 d03f d4fb 35ad 164e d23f
000005c0: fc7e 7734 c887 bebf 6859 34fd 3f98 b23f
000005d0: 24d6 66e1 50c6 b53f bd75 176e 263f c4bf
000005e0: a124 8c3b 2568 b7bf 605f 39d0 8cfe a3bf
000005f0: f6fe 9b88 b19a 9abf adb9 ce33 8f44 ac3f
00000600: 3e84 de23 954c 313f 39b2 b49b 6774 c93f
00000610: 4ddc 3696 ee3f b23f 1bdd ea29 7706 c9bf
00000620: 11a5 0f26 515c d33f 189b d694 4aac a7bf
00000630: 0bee 2985 f15f 7c3f 284a c9ff 02d0 c8bf
00000640: d1b9 323b 380e cb3f e100 6eec 4714 bf3f
00000650: a647 c837 4e12 d7bf b3ce 6385 62fa cdbf
00000660: db3d 5159 18ba db3f 0a98 3912 9e34 c13f
00000670: f1a8 a4a6 c470 bf3f 46a4 63ec 21a7 b93f
00000680: 158d 1ea1 65a0 b23f d2c5 4eb2 5f18 c43f
00000690: a431 19f4 92f9 d13f a26a 94e5 121f 963f
000006a0: 4584 893e 4a67 c9bf 8d94 cdb0 3612 c0bf
000006b0: 4605 d3df 823b 723f 4357 50fd c245 b23f
000006c0: 6559 99b1 7098 bb3f 7ce0 b6ad db2a b4bf
000006d0: ae14 9f8b 434f a03f e111 ddd6 3f7f 853f
000006e0: 14ec 91e4 9e53 c1bf 2451 7635 00b9 c1bf
000006f0: 3259 7960 484c c5bf cd16 9753 f303 c0bf
00000700: f32c a447 5101 acbf 21ed 92a3 bdd4 6dbf
00000710: 7105 4c4b 50d5 83bf 6cef c9df 167b c0bf
00000720: f86a 5728 12fb c3bf 4a9f e8b2 3981 cb3f
00000730: eed8 3f1f b1bb c33f 6cbc 511c e065 b43f
00000740: 0356 15a0 6840 a7bf 9dfd d5ef a6e4 b3bf
00000750: a8df c116 4c0c ba3f a7fc b34d 0b67 d13f
00000760: 6ab7 2109 bd3f 803f 27da d406 fd9d 9a3f
00000770: a549 6b46 4b44 c4bf 3f6a c9ad c996 a03f
00000780: 7f2f f962 f769 cc3f 6047 2742 9de8 c03f
00000790: 5039 8fb4 1da5 bf3f e447 7d7f e484 c63f
000007a0: c069 c9af d09d c9bf 20ea 8509 064f c9bf
000007b0: ddcb b293 e46a cabf 2bee 20d5 3ac5 bbbf
000007c0: 968d f993 e66e 77bf 841c 44d4 5240 babf
000007d0: bf60 c44b 88e9 c1bf 887b 69ba 9c1f bdbf
000007e0: bd04 99f6 95a1 d2bf 3316 96eb 988a a8bf
000007f0: b514 58ab 09d6 d43f 8e65 45e1 1a04 c33f
