layer1_bias.npy (npy, 480 bytes, 1 tensors)

array f8 [1, 50, 1, 1]
000000 e1 b3 1e a8 eb 1e da bf 49 02 dc ea f3 64 d1 bf
       -0.408137239627477 -0.27178667006959195
000010 f5 0e c5 a1 25 e3 c0 bf f7 91 1e dc fb dc a9 3f
       -0.13193197630800282 0.05051409780506682
000020 32 1b d3 7b 7c 4c ce bf 0f c2 2b 41 18 18 d0 3f
       -0.23670917554974263 0.2514706264910566
000030 5d 5d 41 4a e5 85 d4 bf be 2b dd bc 67 ab c7 bf
       -0.3206723427915302 -0.1849183723628282
000040 d9 c9 9a 17 c5 67 c2 bf 8b 44 42 84 f6 ce b6 bf
       -0.1437918057686847 -0.08909550408340487
000050 78 26 e4 b9 a6 95 c6 bf a3 f1 9b 20 c3 9c be bf
       -0.1764419944450315 -0.11957950159189194
000060 4f 60 f0 8f 3a 8d d2 3f 68 08 9a 4d df 3b c6 bf
       0.2898699193624496 -0.17370215691704805
000070 b4 c6 82 b0 3e 88 a0 bf 9b 53 25 48 c3 ad c1 bf
       -0.0322894659488048 -0.13811532042259675
000080 9c 83 a2 29 c2 f0 d6 bf d9 41 fa 4b cf c2 b6 bf
       -0.3584447294797941 -0.0889100609294994
000090 8e dd 5c 23 d1 69 c2 bf a3 fa ed 27 2b b2 9f bf
       -0.14385427691170743 -0.030953096687421532
0000a0 be bc a8 46 b9 df ca 3f c2 40 3c f6 e7 9e a5 bf
       0.20995250654366332 -0.0422279823379781
0000b0 a7 8d 8c c5 4b f6 62 bf 4b 6b 78 b6 e0 ca b9 bf
       -0.002314708701662577 -0.10075191931575238
0000c0 a2 02 1d 2f f8 46 c6 3f ea 44 0b e3 7d f1 c2 bf
       0.1740408163114085 -0.1479947432149296
0000d0 81 95 e0 4c 8d ce c6 bf eb ca 2d 03 9f 7d b3 bf
       -0.1781784654023504 -0.07613557651147189
0000e0 87 bd df 7a 47 ff db bf 09 c5 bb f9 cb c2 b4 bf
       -0.43745600699818293 -0.08109736296662019
0000f0 cd ac b6 8b ca 8a be bf 76 e9 47 da 72 ba b0 bf
       -0.11930528555847104 -0.06534498051761325
000100 e0 48 da f4 18 55 d6 bf d1 76 f0 26 9a ee cb bf
       -0.34894393836397164 -0.21821905995687144
000110 42 a5 4e da 0c 34 a6 bf fa 7f 0d c9 66 fa 99 3f
       -0.04336586155779766 0.02536926843765739
000120 0a 30 a4 25 f2 fb b6 3f f6 29 22 a6 53 02 c8 bf
       0.08978188914278476 -0.1875710068892002
000130 f0 78 16 a8 6d 6b c7 bf a0 d2 cb fe a9 e4 b6 bf
       -0.18296595294390938 -0.08942663641557624
000140 ff 98 d4 2c 17 e8 93 bf d8 2a be 94 78 06 c5 bf
       -0.019440042601808646 -0.16425997984727903
000150 8c 80 41 62 16 39 c5 bf 1a 3c c6 23 1b 04 b5 3f
       -0.16580467031144897 0.08209390281102494
000160 db 6c 25 c4 9c f7 bf bf a3 22 1e ab c2 6e cc bf
       -0.12487201489186665 -0.22213013987881877
000170 cd 4c 99 80 7d a9 b1 bf c7 36 4b 7f 9d b5 b9 bf
       -0.06899246587390735 -0.10042747838744069
000180 f7 d2 e5 00 b9 64 d2 bf 61 dd 0a ed 67 cf b4 3f
       -0.2873976238982289 0.08128976380509335
