layer3_weights.npy (npy, 200080 bytes, 1 tensors)

array f8 [500, 50]
000000 b4 5a 11 62 b2 cb ba bf b0 3d fc 5d 86 70 b0 bf
       -0.10467066663964425 -0.06421699328006159
000010 45 65 4e f0 5a f7 9f bf e1 af 8e d2 f4 b6 a9 bf
       -0.031217022816780533 -0.05022397108345423
000020 d5 55 39 82 c5 b3 ca bf ce 4d 5a 6b 31 02 cd 3f
       -0.20861119135467612 0.2266294264014576
000030 0a ea ef 79 e2 e8 98 bf fe d7 97 20 69 c9 b3 bf
       -0.024325884525731957 -0.07729203267794557
000040 4d 57 36 a6 f7 77 93 3f 0d 69 02 ce 48 aa 90 bf
       0.019012326736251684 -0.016274583410088406
000050 86 79 79 6d 16 d7 bc bf 6c e6 ac 8b f2 b6 c5 bf
       -0.11265697643964331 -0.16964561290824365
000060 e8 89 a8 27 84 6f c0 bf 03 d6 8f e8 88 e8 a6 3f
       -0.128403205265456 0.04474284972085842
000070 73 8c 71 87 f2 9e b6 3f 67 d4 bb 0a c6 a4 b9 bf
       0.08836284453131941 -0.10017049562505208
000080 c2 1f 47 c0 5d 39 ba 3f d5 7d e1 63 f1 a1 c6 bf
       0.10243783897669714 -0.1768171060275409
000090 30 de 9a 60 b4 cf a8 bf ef c5 10 6b 06 de c1 bf
       -0.04845966033229521 -0.13958816745575528
0000a0 66 2e 38 b3 8d 6f ba bf fe 9c ea 62 cb cd b8 bf
       -0.10326467156863259 -0.09689017453148449
0000b0 43 6e 83 7d 8d 08 98 3f 5a 3a 75 71 bd 6a 83 bf
       0.02347012594769483 -0.009480934166871059
0000c0 14 ce 9d 17 05 e0 9a 3f 53 e0 9f f6 6f 8e c1 3f
       0.02624519306796287 0.13715934316838005
0000d0 e9 4e 53 bd 36 75 b3 bf e8 5f 9b 05 51 e4 a0 3f
       -0.07600729105189043 0.032991916593971216
0000e0 5f a0 39 eb e5 0d c1 bf 13 6e f8 a9 7e bc a0 bf
       -0.13323663697815655 -0.03268810105165811
0000f0 dc de f9 07 f6 90 c1 3f 59 8f 74 32 de c3 aa 3f
       0.13723636044937038 0.05227560392293524
000100 76 6d 3b 59 ff af b2 bf 9d 78 f9 8b 90 40 a2 3f
       -0.07299800804633158 0.035648839079599905
000110 95 76 09 38 4b 1a ba bf 83 7f ff ba 3a 00 e1 bf
       -0.10196371191110594 -0.5312780048661668
000120 09 10 ee 6d 88 c4 a6 3f 71 fe d9 91 17 53 74 3f
       0.04446817724149816 0.004962055272357811
000130 20 af 2c 9f 00 4f 9d bf dd 7b 79 39 73 30 9c bf
       -0.028621682849162444 -0.027528572447746192
000140 0e 47 2c fc cb ff 94 3f fe 5b f4 79 39 59 c4 bf
       0.020507037416854827 -0.15897291617213222
000150 02 e8 0a 40 44 69 be bf 42 e5 84 88 09 bc 95 3f
       -0.11879374087848762 0.021225117642847076
000160 d9 59 48 72 6d 75 a3 3f 3f 7a b4 80 00 ed ab bf
       0.03800527591754461 -0.05454255648713912
000170 39 be d4 81 11 25 c7 bf 21 21 3f 05 7e 22 bb bf
       -0.1808187374058308 -0.10599506023493578
000180 6d 0a 2a d4 5f 05 c9 3f 05 e5 45 01 64 b2 6c 3f
       0.19547651156979687 0.003503032037937561
000190 d8 24 fb 15 a7 db ac 3f 83 1d 0f fb 7f db 9d 3f
       0.056363316949111286 0.0291576382622032
0001a0 ee 85 e9 f0 8a 65 c5 bf 5a 53 97 40 40 5f 8c bf
       -0.16716133845606812 -0.013853551837124268
0001b0 ee fd 00 dd df 7b b0 3f bf 9e e1 36 39 6a a2 bf
       0.0643901743469468 -0.03596667094171612
0001c0 a3 90 41 26 c4 cf aa bf 1b 24 4a 12 07 a3 c2 bf
       -0.05236638037675447 -0.1456002082161668
0001d0 ad db 4c 29 25 16 c9 3f 12 70 8d 2e 9b e4 a3 3f
       0.19598831669438024 0.03885350173251835
0001e0 69 2e e6 56 0d 51 ae bf 93 7e 95 85 87 d5 ab 3f
       -0.0592121285036143 0.05436347489989859
0001f0 83 e3 00 8e 97 d8 c8 bf 14 c2 f0 60 08 f5 a7 3f
       -0.19410986360324153 0.04679132636409036
000200 13 cc b0 11 a8 02 cf 3f 1d 5d 69 db ba 7a cd 3f
       0.24226857055472859 0.23030791963058386
000210 49 19 1c c2 15 c9 c0 3f c3 43 11 ab 55 1b 93 3f
       0.13113662698760667 0.018658960882308905
000220 07 21 46 f1 61 03 ca bf f5 4b c0 64 b7 fe c2 3f
       -0.2032282283873956 0.1483983270596522
000230 92 8e a0 95 46 dd cd bf 8a 8c 61 66 5a 0d af bf
       -0.2333152990914767 -0.06064875125664411
000240 e0 48 bc 48 52 ed c4 3f 57 27 1b 56 c5 ce cc 3f
       0.16349247504746867 0.22506014542005445
000250 dd 5e 69 b3 99 bc 71 bf eb 30 65 2a f7 a9 79 3f
       -0.004330253976682488 0.006265607348108863
000260 fc c7 0a 03 eb 49 db bf 94 cf a8 4e e2 81 c2 3f
       -0.42638659760552833 0.14458874550620904
000270 35 08 af 56 6d 02 9d 3f d5 f8 d8 37 01 f6 c1 bf
       0.0283295711667579 -0.14031996943408012
000280 d2 fd 2f cb 87 52 b2 bf 34 4a c3 22 f9 10 a6 bf
       -0.07157181463843834 -0.04309824513770302
000290 47 e8 e9 72 f1 12 8e bf fb 28 e0 a4 1a 7a 8b 3f
       -0.01468456870974334 0.01341648879681089
0002a0 12 7b 87 3a 2a 1f c2 3f f9 13 9b 6b f6 6d a3 3f
       0.14157607896682883 0.037948322902174376
0002b0 be 0d 18 0f cb 7c cc bf 8f 0d fb 08 07 ee ca 3f
       -0.2225583862019515 0.21038902224072983
0002c0 5d a3 a8 d5 22 17 d2 3f ac 43 e1 2e 18 01 c8 bf
       0.2826621138106498 -0.1875334004312469
0002d0 1f a1 69 57 fd 56 a4 bf d2 60 c0 bb c6 e1 c5 bf
       -0.039726178093419266 -0.1709526459460507
0002e0 21 9a f6 c3 39 e7 ab 3f c3 6b 05 a7 d3 fe bc bf
       0.05449848668222424 -0.11326334788957042
0002f0 50 66 33 00 72 4e c1 bf d0 fb 0c 78 18 f6 d1 bf
       -0.13520646104625422 -0.2806454822893416
000300 0b 73 13 ab 06 85 86 3f 2e 51 81 35 2e ca a0 bf
       0.010995914550613791 -0.032792514830961
000310 8e 0d 42 f6 29 f1 bf 3f 84 a8 d4 43 3e 3a c4 bf
       0.12477361929091144 -0.15802744209333153
000320 d8 01 ba 7e bb 49 c2 3f 40 d9 1e 12 43 57 97 bf
       0.14287513435193833 -0.022793815594661426
000330 89 3d 73 3f ad 1c d2 bf e3 2e c6 ca 64 b8 b2 3f
       -0.2830002898817488 0.07312612486401408
000340 36 e9 37 51 44 c1 63 3f ad 2f 20 94 d9 f7 a7 bf
       0.002411492759845003 -0.046812819797281115
000350 56 46 9b bf d8 30 b4 3f 9f 1f 2b a4 8d 3d bb 3f
       0.07887034109014598 0.106407978611172
000360 56 69 a7 32 19 b7 af 3f f2 81 e0 5e c2 9f 84 3f
       0.061943805154174456 0.010070341606536613
000370 d3 1e 2b 11 cf 7d a7 bf 26 26 9a a6 00 33 c9 bf
       -0.045881720395809865 -0.19686897406454412
000380 91 65 6e b8 39 5d 8a 3f 69 c3 85 8b 9d d8 b0 bf
       0.012873125973601048 -0.06580528885184624
000390 39 f9 d8 66 b2 7e 97 bf 8b df 1c 15 fd 30 cc 3f
       -0.022944247748676736 0.22024501353166345
0003a0 46 c4 ab a7 74 8f 9c 3f 8b 85 4f 71 64 2f c5 bf
       0.027890990003417458 -0.1655087998652046
0003b0 9b aa 62 ba 9f 89 b5 3f f3 40 a6 5e 1e 25 ad bf
       0.0841312246363181 -0.056923817685971566
0003c0 68 00 fe 6a c9 6d d0 bf 66 1c e6 f9 21 22 a9 bf
       -0.2567008538098947 -0.049088536982758765
0003d0 aa a5 a9 4d 7f c5 91 3f 6f 4d 23 ba 4b 9f a4 bf
       0.017354954829362924 -0.040277830573951394
0003e0 12 c8 80 c4 55 50 9b bf e8 e1 b4 77 46 bd aa bf
       -0.026673641317934545 -0.0522253056646525
0003f0 e8 76 30 c0 18 9e cf bf ca 8a d9 30 f5 dc 83 bf
       -0.24701222786182275 -0.009698787263180537
000400 ce 34 9a 58 88 8d bc 3f 74 97 67 05 af 71 b7 3f
       0.11153461611884838 0.09157842523526744
000410 a4 69 88 d8 a5 41 a1 3f 29 89 b5 59 e8 0f 89 bf
       0.03370397823546803 -0.012237372625069813
000420 f0 b0 3f 10 9b 64 c2 3f 02 0f ca 8c 92 56 a7 3f
       0.14369524281881452 0.04558237045878678
000430 00 64 db a9 d4 77 c0 bf a7 f1 27 49 f4 2a c7 3f
       -0.12865694326208654 0.180998359413832
000440 0a 69 4d 92 20 7f a1 bf dd 7d bf 2c 8b 4f c0 3f
       -0.034173028811624276 0.1274274796005405
000450 6e d7 17 f6 74 ff c0 3f e6 f3 a5 ad 0c 3e a9 bf
       0.13279592529550704 -0.04930152530412339
000460 29 0a b9 33 83 fc bb 3f f5 ac 29 12 3b 80 ab bf
       0.10932178509487102 -0.05371269795144854
000470 7c 81 99 b5 af 71 bd bf c2 6d 9b 69 fb 50 be bf
       -0.1150159662588574 -0.11842318847941782
000480 4a 99 95 33 11 35 c3 bf b7 66 1d 45 61 32 b5 3f
       -0.15005698221939162 0.08279998719572289
000490 a8 bf 65 c0 19 74 b5 bf f8 e3 fd a7 c3 83 c5 bf
       -0.08380280444339283 -0.16808362677309652
0004a0 4f 1b 8c 0a fd 1e b6 bf 3e ce b8 ff c3 18 74 bf
       -0.08641034610273589 -0.004906430836445317
0004b0 9e 91 de e4 00 8c b5 bf 84 0a 6b 29 79 e6 ad bf
       -0.08416753375656191 -0.05839899664490125
0004c0 87 34 fa 75 88 d6 bc bf b2 d5 06 3f 5e 12 9f 3f
       -0.11264851455981005 0.03034350642857015
0004d0 81 a4 21 dc ec 86 bd 3f 76 70 0c a1 04 57 a1 3f
       0.11534004568388136 0.033867020282031854
0004e0 2e 5a d3 cb 52 39 a2 bf 9c d3 17 72 5b 96 81 3f
       -0.035593593007139254 0.008587564868301638
0004f0 81 c4 96 14 cb 70 c7 3f f6 c1 8c 74 5f 1e a4 bf
       0.1831296778232492 -0.039294226624750836
000500 bb 03 ba fd 3e 04 9c 3f 9e d2 e9 be 94 02 a9 bf
       0.027359947429889547 -0.04884781675801729
000510 4a 8c 78 64 89 c1 b1 bf 8f d8 3a bf bc 87 81 3f
       -0.06935938551809886 0.008559679590103534
000520 50 66 29 74 d1 ec a7 3f fa 9b 44 22 e3 02 c6 3f
       0.046728654317757745 0.17196311162226136
000530 e9 10 db ec c4 0c c2 bf 32 89 16 de fb 9f 96 bf
       -0.1410146862527946 -0.02209466498391883
000540 85 d5 b7 95 e5 b4 ba 3f fb a6 a1 32 0e 55 c3 3f
       0.10432276635386557 0.15103318664778684
000550 58 52 ed f6 85 3d c5 3f 86 7f 03 e5 d2 12 c7 3f
       0.1659400420854975 0.18026195699985353
000560 38 35 b3 e9 eb 4a c7 3f a3 91 e0 b2 9d 81 b2 bf
       0.18197392378935162 -0.07229028336639103
000570 cb 66 4b 98 f3 cf b4 bf 6f 52 80 ec 14 33 bb bf
       -0.08129808872345305 -0.1062481953998231
000580 6d 23 7c 1e d5 35 99 bf 9f c2 3d 1a 91 e9 d3 3f
       -0.024619417176868042 0.3111307865392891
000590 be 5c fa 10 8b fa 92 bf eb 01 18 3e 46 68 a2 bf
       -0.01853387156606056 -0.035951800422484435
0005a0 51 35 ee 20 34 a7 cb 3f 97 02 b7 5f fc da cc bf
       0.21604014976439115 -0.22543291734293255
0005b0 5e 20 57 43 23 19 b3 3f f1 c8 5b 6d 5e f8 b5 bf
       0.0746023215680238 -0.08582105798612695
0005c0 01 c8 88 83 2a 94 ab bf 93 20 ea 50 dd 62 ce bf
       -0.05386479240077336 -0.23739210558801868
0005d0 c3 90 0a 09 a1 13 d1 3f 1c b3 a5 3b e6 f6 b7 3f
       0.2668230617803255 0.09361113506538427
0005e0 c8 08 19 1a 87 32 c7 3f b7 f4 71 2a e8 b1 c4 3f
       0.18122948431306996 0.16167928764835945
0005f0 c1 60 23 5a d7 eb c8 bf ab 9a 10 92 02 5d 96 3f
       -0.19469730283049638 0.021839180150119358
000600 fe c9 0e 7c 64 99 c9 bf d2 09 88 c4 07 14 c1 3f
       -0.1999936681509808 0.1334237775445915
000610 77 db e0 ff 18 d1 c1 3f 43 3a 3c f0 21 b2 be 3f
       0.1391936540037155 0.11990558734053373
000620 3a b6 e0 b3 4b 32 b4 bf 73 1d bf 08 bc 18 a9 bf
       -0.07889245168254258 -0.04901683432359052
000630 39 d8 39 1c 77 b4 91 3f 3e d1 bb 76 b0 ca a8 bf
       0.017289982888961417 -0.04842139672647015
000640 af e6 b6 57 c4 3d bc 3f dd 3d 26 36 92 d3 a6 3f
       0.11031748906580206 0.04458290968898002
000650 e4 9d 5c 9a 5c 70 c1 bf 33 56 60 c6 a5 de c0 bf
       -0.13624150788494582 -0.13179466425269623
000660 73 38 fe d8 5f f6 bd 3f 58 db 9f cc 68 a7 c0 bf
       0.1170406250732599 -0.13010892859866874
000670 f9 91 cd 30 5a ad bc 3f da 2d ce d8 b7 18 8b 3f
       0.1120201462886782 0.013230739883303966
000680 ca 87 9b 43 be 70 c0 3f dd a9 0f 60 11 cd b6 bf
       0.1284406499972291 -0.08906658740276137
000690 22 99 8d c7 5b 3c c2 bf a4 d5 1a 6c 8f b0 9b 3f
       -0.14246699565701088 0.027040711377329565
0006a0 df 93 f8 88 d6 bb 8b 3f 78 7c c0 47 cb 30 af 3f
       0.013541866354964625 0.060919144161965144
0006b0 62 89 ab a1 ee ca aa 3f cc 1f 3d b6 9e d8 bd 3f
       0.052329499468913424 0.1165866084021438
0006c0 f8 26 5e 4e aa 3e d7 3f 7e fb 92 5d a0 03 c5 bf
       0.3631997838316319 -0.16417316979456226
0006d0 4b ad ba 67 1a 06 c3 bf 7c 30 a4 04 9a cf b5 3f
       -0.14862375321295426 0.08519899953188487
0006e0 34 78 54 ff 0b f4 b5 3f d9 7c d1 71 3e 39 9b bf
       0.08575510963098126 -0.026585555741232312
0006f0 af 00 7d 91 93 59 b1 bf 23 d1 88 53 47 6c ac 3f
       -0.06777307798347708 0.05551360029895338
000700 d4 56 e5 16 28 73 c5 bf 9e 5a 8b c8 fa f2 77 3f
       -0.16757680051767088 0.00584695780044933
000710 cb cf 47 81 ba fa bc 3f 6b c5 d4 46 29 15 98 bf
       0.1132008138300186 -0.0235182237131019
000720 8c 2e 52 b8 3e 5e b4 bf 1f c7 06 86 64 e2 95 bf
       -0.07956306457543344 -0.021371431999518294
000730 37 55 d7 68 d7 cf d0 bf de 62 3b cf 3b 4c c4 3f
       -0.262685634979181 0.15857646578549284
000740 f9 a2 66 f6 84 eb 97 bf 1a 9d 24 69 32 fd 55 3f
       -0.02335937265312091 0.0013421051303995125
000750 5e 80 23 f5 25 07 b2 3f 1f 62 ff 72 24 df ef bf
       0.07042157397109025 -0.9959890600249003
000760 1d ef 83 96 4e ce b2 bf 2c 0f 55 33 ef 44 d5 3f
       -0.07346049475375734 0.3323324204723004
000770 64 42 93 7c 62 57 93 bf 83 e3 c1 54 cf e0 b4 bf
       -0.018888033727139222 -0.08155532664558333
000780 9f d2 62 a4 25 69 c6 3f 03 ca 3b 71 c6 99 a8 3f
       0.175083832995047 0.04804821140523432
000790 16 51 13 b6 e6 5e d4 3f 76 21 78 8f 65 d6 c8 3f
       0.31829231053167584 0.1940428686650752
0007a0 b6 28 95 78 ed a3 b9 3f 8c 10 ea 6e 98 0e b3 3f
       0.10015758699333585 0.07444145877713221
0007b0 ed 4f cd f5 d9 1e c3 bf e7 c1 50 c9 54 5f c2 bf
       -0.14937901022005864 -0.14353427724701293
0007c0 67 dd 47 f7 13 75 c0 bf d9 29 8f 96 c6 7f 91 3f
       -0.12857293676618584 0.017088988246351498
0007d0 56 7b f9 30 2e 2d b0 3f c7 a6 ca e3 93 f8 bf bf
       0.06318939872424542 -0.12488674460714853
0007e0 c0 67 cf f6 24 c3 b3 3f 96 ca 23 30 40 94 bd bf
       0.07719641709937175 -0.11554337668693856
0007f0 c1 ad 59 b3 65 89 c5 bf ae 8f 34 b9 1e bb 9b 3f
       -0.1682555318578647 0.027080993703876004
