layer4_weights.npy (npy, 11680 bytes, 1 tensors)

array f8 [50, 29]
000000 6b 53 97 fb 7e 73 d6 3f 7e 89 e9 50 bd bf ca 3f
       0.35079931802220327 0.20897642565530455
000010 2e e5 80 67 82 bb 97 3f 92 6a 50 28 b2 07 b6 3f
       0.023176229064323532 0.08605493053657146
000020 18 b2 49 d6 74 54 d4 bf f1 c0 93 3e 10 8e c2 bf
       -0.31765480925131007 -0.144960432582145
000030 81 c1 85 28 5e 1c b2 bf ff 3e 8e d8 59 52 cd bf
       -0.07074535836523489 -0.2290756518746022
000040 e4 1a d5 b7 d9 ad c7 bf 22 5d 8c db f9 73 cf bf
       -0.1849929950351089 -0.24572680683261533
000050 f5 07 1c 54 7c 88 c3 bf b9 2f 2b 57 48 1c d1 bf
       -0.15260271174344067 -0.2673512316948706
000060 b3 1d b1 22 64 19 c7 3f f3 da 93 92 65 a9 bf 3f
       0.180462376536736 0.12367853954843237
000070 57 b5 ba 97 01 ea e1 bf 33 45 6a f1 72 c1 e0 bf
       -0.5598152125800578 -0.5236143794192344
000080 ce 53 af 4c 37 46 c1 3f 84 9c fb 45 f1 d7 d3 bf
       0.13495532268885174 -0.310055082647928
000090 96 ae 03 bd 63 35 db bf a8 ad 3b 0b d8 8f cb bf
       -0.4251336427539426 -0.2153272681092464
0000a0 a3 60 4f 62 3f 78 d7 bf 59 3c 7f b4 c3 9b d4 bf
       -0.3667143306788693 -0.32200710894261914
0000b0 dd 9e 45 19 cc 6c b1 bf b5 7b 48 41 c9 6e ca bf
       -0.0680663644503698 -0.2065059250607796
0000c0 88 8e 9e 7e 54 64 d2 3f da a3 fd 18 f9 5a cd 3f
       0.2873736607091151 0.2293387767815876
0000d0 e6 fd 9d 74 b1 dd dc bf 25 43 79 67 80 25 e8 3f
       -0.4510310782279404 0.7545778294534996
0000e0 aa fa 2b 5c 65 75 e4 3f 06 49 61 da 84 30 c9 3f
       0.6393305587988227 0.19679318106734217
0000f0 33 b9 8f 7b e3 ab e2 bf 39 a5 0b 1e 3d 24 ce 3f
       -0.5834824956234911 0.23548091857018408
000100 28 a7 bb b0 9b 5d bb bf 4d 16 6b 92 12 97 a5 bf
       -0.10689709725161534 -0.042168217061356296
000110 94 07 c8 ec 74 64 d3 bf 70 d9 a7 e5 e1 f5 d1 bf
       -0.30300639270000684 -0.28063247134504987
000120 4c 66 d4 0e 57 9f e1 bf 6f 23 56 d2 ca df c7 bf
       -0.5507006921427062 -0.18651709814391945
000130 52 ee 1e e2 6d f9 ce bf 4f a4 ff 16 1a 95 e3 bf
       -0.24198697606140002 -0.6119509171668457
000140 56 d5 23 80 50 fc c0 bf 82 15 cd 20 5b 07 c4 bf
       -0.1327000261004893 -0.15647448636643096
000150 03 d0 f9 4b f1 3a c5 3f 98 20 97 52 5d 5f c1 3f
       0.16586128434903466 0.13572279484492777
000160 bb a1 43 3e 22 96 d6 bf e1 48 65 9f 56 4e c2 3f
       -0.352913437657232 0.14301569731703181
000170 54 83 65 0a e8 87 d4 bf 22 14 38 0f 39 b8 be 3f
       -0.32079506888662945 0.11999851819571508
000180 35 ae 5c 48 bd f8 d1 3f cc 37 77 17 4b 2f ca bf
       0.28080684725384525 -0.20456827779565712
000190 a2 95 b8 d6 9b 72 d4 bf eb b1 6b 52 69 59 e1 bf
       -0.3194951626668062 -0.5421644792345978
0001a0 25 8b 67 2f e4 e3 c6 3f fa 76 dd 8e c1 1d c3 bf
       0.17882969202681767 -0.14934558368525314
0001b0 d4 5a e1 62 bf d4 e1 3f e5 21 a3 12 70 c2 da 3f
       0.5572201663261134 0.41811754055063793
0001c0 91 2b bb ec 0a ed e2 bf dd ec 49 7c 84 52 d1 bf
       -0.5914358733801796 -0.27066146981787914
0001d0 be cf 3d 9b 8f bf cb 3f 30 16 19 49 04 cd c2 3f
       0.21678347664021475 0.14688161439168956
0001e0 37 07 a3 d7 fc f7 cd 3f b7 25 9c 42 3f bb cd 3f
       0.2341304829515651 0.232276828312292
0001f0 81 45 52 c8 19 51 a5 3f 6c bd 78 e1 6f a3 d0 bf
       0.041634374335568054 -0.25997540491785887
000200 8d b3 5c 31 1f ce b2 bf 14 0d d4 76 0a 8e c5 3f
       -0.07345766978387598 0.1683972435203961
000210 14 68 71 bc 20 6e a4 bf 52 d9 75 69 90 9e d6 bf
       -0.03990270901040574 -0.3534279851804928
000220 9e ed 95 db dd 0f b5 bf 0b ab 2d ac 63 8e b4 3f
       -0.08227335558870272 0.0802976889951134
000230 e6 b8 fa 14 f6 96 d0 bf 76 d4 1c c6 17 02 c9 bf
       -0.25921394394653274 -0.19537636922328588
000240 ba 2a f5 74 f9 80 b7 3f 70 74 04 4d d2 a7 d4 bf
       0.09181174378788173 -0.32274301072340617
000250 f6 62 16 fe 5d 77 d8 bf de 01 de a1 d5 2f c6 bf
       -0.38228559315898225 -0.1733347931258455
000260 ae 74 9b 71 1d 48 ce bf 3e 5a c9 26 16 58 d2 bf
       -0.23657577559689486 -0.28662637508151423
000270 b5 ea 1f 0d 5a e9 b9 bf 6d 25 a8 b6 58 18 ac bf
       -0.10121691532541884 -0.054873249337172726
000280 ef 5e 05 ff ff ad c6 bf 5b 25 ef e3 c1 68 d3 bf
       -0.1771850581378582 -0.3032688833159988
000290 66 64 b0 a7 c8 77 ed bf 2b af b1 43 b8 0b e2 bf
       -0.9208720469643026 -0.5639306375646574
0002a0 10 42 40 d9 31 b3 e8 bf ca 31 14 78 5c 48 c9 3f
       -0.7718743556197882 0.1975207887957267
0002b0 d2 3d e7 be cc c5 c9 bf 28 7d 02 95 e7 56 c5 3f
       -0.20134887048196376 0.1667146184526953
0002c0 9a c7 95 64 b1 0e cb 3f d9 d3 14 a2 6e 7e d0 3f
       0.2113858929765769 0.25771680668122837
0002d0 dd 81 22 69 90 cf c9 3f 35 82 e1 5c b3 b0 b6 3f
       0.20164685376677385 0.08863373773193291
0002e0 40 05 aa 03 a4 3d d1 3f ad f2 4b ba e9 88 aa bf
       0.2693872485907214 -0.05182581328515332
0002f0 a7 0f cd 75 6b e4 d2 bf 50 d2 35 7d 0f d2 ce 3f
       -0.2951916361237132 0.24078553785115497
000300 0e cf c8 1f 43 b6 ca bf e8 1b 53 48 45 1a c9 bf
       -0.2086872010419189 -0.1961142161510161
000310 84 f2 59 24 cd ec d8 3f db 9b f8 82 e5 02 ca bf
       0.389453206538555 -0.20321339507174127
000320 d9 d2 21 b8 10 9e c7 bf 36 75 9d ee 52 84 b3 bf
       -0.1845112704355845 -0.07623785329402186
000330 d8 64 2d 7d 65 00 d0 bf 49 f3 3c 97 58 f4 d0 bf
       -0.2500241968569532 -0.2649136998114057
000340 b1 09 19 84 96 f3 b0 3f a1 2d 6d fd 65 2c ce bf
       0.06621685719532057 -0.23572993158664438
000350 c5 73 4e 01 cc 9a bc 3f 12 91 69 19 9c 96 d8 bf
       0.1117370131673417 -0.38419249040295356
000360 08 45 5d 34 79 ef c2 bf 87 cb c3 f1 60 48 ab bf
       -0.1479331498799541 -0.05328658057432905
000370 d4 07 ed 3c e8 b7 96 bf 35 a3 37 a7 05 b4 c7 3f
       -0.022185925215360516 0.1851813379755868
000380 23 8d 84 bc 26 24 d1 3f b6 23 e8 d7 4d 19 f1 bf
       0.26783150110186876 -1.0686777528628517
000390 ef 54 9b bf 44 2b cb bf 58 30 2d c5 34 f8 d8 bf
       -0.21225795131491718 -0.39014930015105653
0003a0 bd 50 ac f2 df 92 af bf 06 c7 ac 4f 3f d4 c4 bf
       -0.0616674407703228 -0.16272727384926372
0003b0 90 47 bf 39 33 0c d2 bf 2e 2b e8 9f db 6d d7 bf
       -0.28199463500379185 -0.3660801946249873
0003c0 fc a8 7a f5 70 84 bf 3f d4 e1 ef 4d 6b 38 c0 3f
       0.12311464303153125 0.12672177606124413
0003d0 a7 55 49 70 f8 b3 d3 3f 30 64 67 a4 a8 d2 d4 3f
       0.3078595253512852 0.32535759024682687
0003e0 67 02 ea 9c c7 d7 b3 bf ee 64 41 4e b8 ed e3 3f
       -0.07751128750715851 0.6227685478617369
0003f0 f5 63 6f 4b 2f fb a2 3f ce 9e cd 82 0b 28 c6 bf
       0.037072637518299624 -0.1730970753371736
000400 cb fb 8b 01 79 59 ae 3f 9d 2c d6 60 cb 2e d5 3f
       0.05927637237436264 0.33098110634518624
000410 59 1e 27 fa 48 80 b3 3f a0 4a d4 f1 2b f7 cb 3f
       0.07617622477766285 0.21848058040685192
000420 a5 18 d5 d6 e5 55 b5 bf 7b 0c 6b 65 40 f1 a4 3f
       -0.08334194655353373 0.0409031032372917
000430 fe 1c 03 fd 69 7e d3 3f 1e 39 2e 6a 85 01 a9 3f
       0.304590699274243 0.048839730464452766
000440 9e 10 44 5e d2 76 c6 3f f7 f6 80 06 aa 97 bb 3f
       0.17550115206552602 0.1077829614523259
000450 af fd 84 bd 0e 88 b5 bf 16 83 05 ff 84 2e bc 3f
       -0.08410732390347307 0.11008483148681267
000460 6b 09 46 b9 01 94 c5 3f 31 2f 78 6c b0 2c c6 bf
       0.16857930704652388 -0.173238804782494
000470 b3 1b 13 fd cd 7e db 3f 9f 5d 3f 5d 4d 1c e8 bf
       0.4296145411903424 -0.7534548588982267
000480 74 70 3a e5 32 f1 e0 3f d3 5c b5 5f fd 88 cc bf
       0.529443214141351 -0.22293059514297528
000490 a4 a9 59 f3 3a b4 b2 bf 96 cb 05 83 dc ad c1 bf
       -0.0730625957600411 -0.13811832807149632
0004a0 23 43 af 97 9b 25 dc bf f1 56 5f 7d 09 4b c1 bf
       -0.43979539692831987 -0.13510244962406362
0004b0 85 92 50 c9 88 98 de bf f3 21 12 7d 45 4b c1 3f
       -0.4780599561657158 0.13510960204099795
0004c0 15 5b 9b 2a f6 48 dc 3f ba 2a 01 e2 6e c0 bd bf
       0.4419532219011882 -0.11621754663171205
0004d0 c5 b6 d1 e8 7f 5c ca 3f c8 3e ad c4 f2 18 da bf
       0.20594786518215905 -0.4077727242156297
0004e0 e7 a6 da 91 2b 41 d3 bf 9c a8 fa 46 20 5d d0 3f
       -0.3008526729923759 0.25568396503025226
0004f0 58 ea 9a 46 2c 73 e3 3f 8c 53 35 7d df 1f 94 3f
       0.6078091982847793 0.019652835862263227
000500 40 21 36 9e 8c 85 b4 bf 22 28 8a 9f 2a 6a d5 bf
       -0.0801628004320536 -0.334604888725723
000510 95 cd 3f cf c3 92 c3 bf cd 20 fd 44 67 4c b7 bf
       -0.15291640872565596 -0.09100957330986433
000520 2d 2b 6a 12 09 49 b3 bf c9 cd 9b b7 c9 84 cf bf
       -0.0753331823308769 -0.24623986687912083
000530 95 8b 3f 36 39 6c d8 bf eb 51 4d 5b 52 5a ce bf
       -0.38160543725660406 -0.23713139970881456
000540 37 ff 6e de 22 a7 bb bf 68 3e 46 df cb b4 bd bf
       -0.10801904612071388 -0.11603998375925928
000550 8d 0a 57 d7 0f 61 b6 3f 27 f3 e1 f2 06 64 c5 3f
       0.08741854674648604 0.16711508616926915
000560 80 e6 13 c5 b8 88 63 bf e0 e2 cb bf 47 68 a4 3f
       -0.0023845299516523366 0.03985809532418272
000570 0d 27 cb 1c 58 f1 a3 bf fd ee 69 cb 17 15 cd 3f
       -0.03895068503841346 0.227206205676218
000580 c4 1c 07 28 ac d8 91 3f 05 25 34 d4 83 74 c1 bf
       0.017428102439023943 -0.13636825429447455
000590 a0 7c 48 b6 68 e7 d9 bf b4 f1 06 02 cd 1d b5 bf
       -0.40474908639039064 -0.08248597430696841
0005a0 b3 07 de de b3 ec a7 bf f0 4c 03 35 b1 b0 b3 3f
       -0.04672777267025143 0.07691485924015118
0005b0 03 f2 90 4c 5a 80 c5 3f 74 c2 1b 58 8d 44 c2 3f
       0.16797951448997148 0.14271704485101433
0005c0 91 54 d6 cd d4 19 d3 bf 3a 2c 68 ab 46 27 e1 bf
       -0.29845161534587655 -0.5360444400588513
0005d0 66 36 e4 69 68 eb d8 bf c2 52 eb 90 a1 04 e1 3f
       -0.3893681558700791 0.5318153219655744
0005e0 21 d2 b5 d4 51 7d d0 3f 34 cb 67 4e f8 e2 b0 bf
       0.2576489045380033 -0.06596328653521938
0005f0 5a 0e ef fb 0f 9d 97 3f ce c9 8e 63 46 b4 dd bf
       0.023060083152598977 -0.4641281101459328
000600 5e 52 ea 41 4a 14 d4 3f 48 a4 ce 1a 53 8e c3 3f
       0.3137384074882784 0.1527809029478553
000610 1c 84 b1 47 70 45 b8 bf dd 40 77 4a 7b 62 9c 3f
       -0.09480954885795295 0.02771942750934008
000620 62 96 00 53 41 03 cf bf c0 50 fb 0b 98 b2 da 3f
       -0.24228683998915118 0.41715050859535197
000630 41 21 09 c6 b6 24 c7 bf 60 72 a9 5b 38 4f c3 3f
       -0.18080792112074032 0.15085510707548888
000640 90 a6 b0 55 40 97 a4 bf 0e 99 c2 8b bf 58 d9 3f
       -0.040216455898485326 0.3960417618603892
000650 cc ba d9 61 81 d4 c4 3f 46 67 2b 22 8e 0f da bf
       0.1627351501260449 -0.40719941460485065
000660 d6 de e1 ea 1a 17 e9 3f 68 a8 ac 9d 37 71 c4 3f
       0.784070452456002 0.15970511626193518
000670 67 85 f6 5b ca 5d dc bf ce bb b3 2a bb 00 c6 bf
       -0.44322451573142135 -0.1718973120218536
000680 01 b9 ec c7 f1 8b bc bf c4 f6 60 75 29 77 cb bf
       -0.11151038294767447 -0.21457403403649355
000690 78 f6 fb 38 5d 16 d7 bf 81 5b 93 51 1f b8 d0 3f
       -0.36073999943605584 0.2612379356991639
0006a0 35 e4 14 40 79 ff aa 3f a6 e5 d6 ca 51 83 be bf
       0.05273035914655858 -0.11919127657065207
0006b0 40 66 78 e4 01 4c d9 bf ad 8e 34 ac 05 19 d3 3f
       -0.39526412307313663 0.2984022313778308
0006c0 45 d0 a8 6e 66 67 c8 bf 19 0c 9b bb 13 b6 cb bf
       -0.19065552142422085 -0.2164940515559415
0006d0 ff 8f 84 8d 65 27 dc bf 9c fa 78 07 9b 0b cb bf
       -0.4399045831689818 -0.2112916742789438
0006e0 9c 98 e4 c5 4f 48 b8 bf bd af f8 a1 a4 8f bf 3f
       -0.09485338765498103 0.12328556970959333
0006f0 43 26 30 68 e4 23 c4 bf 12 ee 8e 87 c0 83 d0 bf
       -0.15734534346874982 -0.25804150808446125
000700 58 5e 65 16 df e3 d8 bf 8e fb 44 35 ec fa c4 3f
       -0.38890816866976285 0.1639075527291109
000710 e1 6c f0 ec d3 bb c6 bf a8 7e ba b7 85 6b a0 3f
       -0.1776070506028651 0.0320703303125332
000720 fe d3 9f 34 46 7a dc bf d5 9e 2f 8b 09 77 b3 3f
       -0.4449630273732622 0.07603511474701048
000730 3f e1 a5 04 f8 aa cc 3f 8d e1 a1 63 7d 3e c6 3f
       0.22396755434943746 0.17378203739987122
000740 24 22 86 30 b5 2b e7 bf d9 a6 6d 15 10 0f e0 bf
       -0.7240854213460506 -0.5018387239954009
000750 0f 13 0a 97 5b 4a dd bf f0 d8 bf 7a cd c1 d9 bf
       -0.45766343831955764 -0.40245377528425674
000760 cb e5 ae bc 79 e2 d5 bf 30 80 56 f8 de 61 e3 bf
       -0.3419479696854892 -0.6056971407269938
000770 a5 3b 0a 29 21 ff d9 bf 16 e5 98 f7 71 bc b0 bf
       -0.4061968708783133 -0.06537544531683567
000780 5d e4 0e ac b6 96 c4 3f 75 96 69 aa cc 68 c6 bf
       0.16084941293027813 -0.17507322617455015
000790 58 8a dd 7e 05 61 bf bf f6 e8 cb 58 c7 0c c0 3f
       -0.1225741801004373 0.12538997493522402
0007a0 08 78 09 61 d8 03 c4 3f 9f 57 79 13 34 03 bd 3f
       0.15636734712728662 0.1133301303428582
0007b0 e8 5c 8f ff b9 5b a3 3f f8 74 2a 95 f4 e2 d8 bf
       0.037809193083086445 -0.38885225836732173
0007c0 7f ca 3c 16 7d d3 b4 bf c7 8f 65 e0 d4 9e d7 3f
       -0.08135206025034768 0.3690693084120053
0007d0 9f 7b 6b 4a 9c 40 aa bf 02 0d c1 9a 1b 70 b6 3f
       -0.05127418907590386 0.08764812973190675
0007e0 2f 41 0c 76 3f df bb 3f c9 df ad 36 fb 4f a8 3f
       0.10887524253871982 0.047485208916384254
0007f0 df e0 ab fc 0e ad c2 bf a9 0e e0 1b 45 bf d4 3f
       -0.1459063276049681 0.3241741916865331
